…
        height_shift_range=0.2,  # randomly shift images vertically (fraction of total height)\par
        horizontal_flip=True,  # randomly flip images\par
        vertical_flip=False)  # randomly flip images\par
\par
\par
datagen.fit(x_train)\par
3.4 ) Compiling the Keras Model & Summary\par
model.compile(optimizer=Adam(lr=0.001),loss='categorical_crossentropy',metrics=['accuracy'])\par
model.summary()\par
_________________________________________________________________\par
Layer (type)                 Output Shape              Param #   \par
=================================================================\par
conv2d_1 (Conv2D)            (None, 150, 150, 32)      2432      \par
_________________________________________________________________\par
max_pooling2d_1 (MaxPooling2 (None, 75, 75, 32)        0         \par
_________________________________________________________________\par
conv2d_2 (Conv2D)            (None, 75, 75, 64)        18496     \par
_________________________________________________________________\par
max_pooling2d_2 (MaxPooling2 (None, 37, 37, 64)        0         \par
_________________________________________________________________\par
conv2d_3 (Conv2D)            (None, 37, 37, 96)        55392     \par
_________________________________________________________________\par
max_pooling2d_3 (MaxPooling2 (None, 18, 18, 96)        0         \par
_________________________________________________________________\par
conv2d_4 (Conv2D)            (None, 18, 18, 96)        83040     \par
_________________________________________________________________\par
max_pooling2d_4 (MaxPooling2 (None, 9, 9, 96)          0         \par
_________________________________________________________________\par
flatten_1 (Flatten)          (None, 7776)              0         \par
_________________________________________________________________\par
dense_1 (Dense)              (None, 512)               3981824   \par
_________________________________________________________________\par
activation_1 (Activation)    (None, 512)               0         \par
_________________________________________________________________\par
dense_2 (Dense)              (None, 5)                 2565      \par
=================================================================\par
Total params: 4,143,749\par
Trainable params: 4,143,749\par
Non-trainable params: 0\par
_________________________________________________________________\par
3.5 ) Fitting on the Training set and making predcitons on the Validation set\par
History = model.fit_generator(datagen.flow(x_train,y_train, batch_size=batch_size),\par
…
